policy_cartpole.pt (torch, 4397 bytes, 4 tensors)

stack.0.weight f4 [64, 4]
-0.099150926 -0.2532906 -0.3716677 -0.6240684 0.5024969 0.38149086 -0.21336517 0.13229887
-0.38673472 -0.055560943 0.14310145 -0.20959175 0.12995063 0.022785624 -0.92150897 -0.65600216
0.4279429 -0.4018732 -0.22122742 -0.33497643 -0.326743 -0.30136237 -1.0841522 -0.48804048
0.29135194 -0.29525575 0.5241418 0.6344321 -0.13846432 0.12079658 -0.88112736 -0.33742648
-0.17505628 -0.4774383 -0.32712802 0.15790449 0.12297963 -0.1967445 -0.12194371 0.12741216
0.0548243 0.40549833 1.0929997 0.536976 -0.43538317 0.106456876 1.1348807 0.4338706
0.50720334 -0.116348535 0.4004809 -0.33673742 0.41273472 0.5172141 0.7416624 0.37024102
0.1251035 0.25454012 -0.59471434 -0.23860191 -0.32906413 -0.2829988 -0.49659982 0.019185996
-0.06516232 -0.18322453 -0.6619877 -0.12370045 -0.0035484848 -0.052970685 0.33858567 -0.16230331
-0.2759878 -0.31655872 0.25031978 0.10916285 0.2603335 0.057881594 0.24313198 0.47954538
0.16493012 -0.50951195 -0.46609053 -0.53371185 0.54611844 0.044477705 0.98826283 0.6896229
-0.0029450292 0.11241188 0.36796626 0.24438581 -0.027511325 0.35123038 -0.034728978 -0.0041631083
0.088035904 0.039606337 0.058357023 0.08249707 0.32721734 0.15017632 -0.0028787442 0.15293516
0.089343004 0.34603307 -0.7854407 0.0630324 0.4632185 -0.470742 0.7700702 0.6438308
0.008257847 -0.42163572 -1.2844607 -0.77043927 -0.35682753 0.08057958 -0.44107947 0.1353444
0.109110564 0.27101073 1.1401833 0.56207645 0.2932692 0.23989575 1.001066 0.60418415
0.19742386 -0.18439855 0.36648828 -0.20958123 -0.18198119 -0.34915394 1.3098408 0.35206434
0.38893855 -0.46184608 -0.19536975 0.030000256 -0.050181292 -0.32296553 -0.33530775 -0.12702319
-0.35739666 0.07794209 -1.1932241 -0.1410597 -0.3439043 0.32266146 0.45075282 -0.3855739
0.2814226 0.30076325 1.0409595 0.75265807 -0.469592 -0.38745442 0.6895395 0.024195012
-0.14005114 -0.08394806 -1.2214528 -0.16382489 0.3787973 -0.30525655 0.2852837 -0.12208279
-0.21109529 0.30358592 0.06775579 -0.16660482 0.14352845 0.26691753 -0.32870853 0.22318493
0.17181875 0.28899634 0.62157273 0.6345193 0.12973846 -0.16230793 -1.3208954 -0.15315698
0.0678002 0.3178356 -1.0299739 -0.1141734 -0.33774388 0.20779727 0.069378294 -0.17327045
0.055173725 -0.03077126 0.797294 0.48023412 0.12447579 -0.07733576 -0.26471907 0.14766149
0.47727066 -0.1637135 0.54763424 -0.08536117 0.23873769 -0.033625282 -0.6583255 -0.63202524
-0.049176432 0.51303977 0.59374356 0.65035796 0.15798897 0.0029077728 1.0324296 0.3590424
0.4011151 0.033896364 0.08586306 0.095027015 -0.08260267 0.51667863 -0.11132316 0.16147348
0.09161514 -0.255112 -0.73247474 -0.60134196 -0.105565645 0.29638046 -0.3622713 0.19918671
-0.011332007 0.12943518 -0.33450067 -0.45434853 0.09376327 -0.053546395 -0.83107734 -0.39988235
0.050088063 0.17937028 -0.9714051 -0.46947944 -0.00655818 0.050442934 -0.22136962 -0.15681642
0.4347197 0.2173924 0.9487337 0.41512325 -0.07380925 -0.22585283 -0.84710884 -0.42403668
00000000: a40f cbbd 4eaf 81be 3b4b bebe f2c2 1fbf
00000010: a3a3 003f c552 c33e 667c 5abe 5b79 073e
00000020: 1802 c6be df93 63bd 3089 123e 389f 56be
00000030: c711 053e eba8 ba3c 03e8 6bbf c2ef 27bf
00000040: 551b db3e 53c2 cdbe 7189 62be 0882 abbe
00000050: dc4a a7be 2b4c 9abe 80c5 8abf 71e0 f9be
00000060: 152c 953e c32b 97be 282e 063f 246a 223f
00000070: 97c9 0dbe 3364 f73d 9091 61bf 2ac3 acbe
00000080: f441 33be cb72 f4be 537d a7be b7b1 213e
00000090: bfdc fb3d 6477 49be a0bd f9bd 5578 023e
000000a0: 728f 603d 7a9d cf3e 6ae7 8b3f 4277 093f
000000b0: 8bea debe 1006 da3d c543 913f 4a24 de3e
000000c0: 14d8 013f 2448 eebd d50b cd3e d968 acbe
000000d0: f751 d33e 2568 043f 96dd 3d3f 3b90 bd3e
000000e0: 221b 003e 1553 823e 333f 18bf 0f54 74be
000000f0: 187b a8be 38e5 90be 5542 febe f32b 9d3c
00000100: d373 85bd 369f 3bbe 0778 29bf a956 fdbd
00000110: b28d 68bb caf7 58bd 1a5b ad3e d732 26be
00000120: 464e 8dbe fc13 a2be ea29 803e c690 df3d
00000130: 6f4a 853e 4015 6d3d 97f7 783e f986 f53e
00000140: 71e3 283e 606f 02bf 6ba3 eebe 57a1 08bf
00000150: 6bce 0b3f 412e 363d cbfe 7c3f 208b 303f
00000160: 6401 41bb 3338 e63d 1366 bc3e 4640 7a3e
00000170: 6e5f e1bc 78d4 b33e f93f 0ebd af6a 88bb
00000180: 2b4c b43d 413a 223d c607 6f3d 39f4 a83d
00000190: 0889 a73e d2c7 193e 50a9 3cbb 099b 1c3e
000001a0: 77f9 b63d 3f2b b13e a412 49bf 2217 813d
000001b0: fa2a ed3e 1805 f1be 5223 453f 18d2 243f
000001c0: ec4b 073c a3e0 d7be 3569 a4bf 823b 45bf
000001d0: 19b2 b6be e806 a53d 2bd5 e1be b997 0a3e
000001e0: 5c75 df3d ebc1 8a3e 87f1 913f 3ee4 0f3f
000001f0: 6127 963e 3ba7 753e ee22 803f d0ab 1a3f
00000200: 7b29 4a3e f9d2 3cbe 5aa4 bb3e 769c 56be
00000210: 4759 3abe 4ec4 b2be dda8 a73f c741 b43e
00000220: f422 c73e 1777 ecbe 020f 48be 19c3 f53c
00000230: e68a 4dbd bd5b a5be 75ad abbe 5e12 02be
00000240: b2fc b6be 1aa0 9f3d 91bb 98bf f471 10be
00000250: 3914 b0be e233 a53e 13c9 e63e f169 c5be
00000260: 9f16 903e a4fd 993e 293e 853f 33ae 403f
00000270: 5d6e f0be 6d60 c6be a985 303f 9e34 c63c
00000280: 9169 0fbe f6ec abbd 9158 9cbf b6c1 27be
00000290: b8f1 c13e 964a 9cbe b510 923e 8b06 fabd
000002a0: 5d29 58be 9d6f 9b3e 8cc3 8a3d 749a 2abe
000002b0: 1ff9 123e 6aa9 883e 7c4c a8be 978a 643e
000002c0: 41f1 2f3e 54f7 933e 641f 1f3f db6f 223f
000002d0: 29da 043e 0d34 26be 1a13 a9bf 2fd5 1cbe
000002e0: d5da 8a3d 59bb a23e 2fd6 83bf bed3 e9bd
000002f0: c4ec acbe cfc8 543e 3516 8e3d cf6d 31be
00000300: d8fd 613d 0214 fcbc 761b 4c3f 3fe1 f53e
00000310: 2aed fe3d 3662 9ebd 4289 87be 9334 173e
00000320: d25c f43e 83a4 27be c231 0c3f d6d1 aebd
00000330: a777 743e aaba 09bd 0588 28bf 68cc 21bf
00000340: 3a6d 49bd 9356 033f 94ff 173f dc7d 263f
00000350: dcc7 213e 5590 3e3b a726 843f 68d4 b73e
00000360: f55e cd3e ead6 0a3d f9d8 af3d 869d c23d
00000370: 972b a9bd 0d45 043f 66fd e3bd 4e59 253e
00000380: b8a0 bb3d 0a9e 82be 7783 3bbf 8cf1 19bf
00000390: cd32 d8bd 2ebf 973e a07b b9be 9af7 4b3e
000003a0: e2a9 39bc a88a 043e ac43 abbe 5fa0 e8be
000003b0: f506 c03d 7753 5bbd 7cc1 54bf 61bd ccbe
000003c0: 2429 4d3d d8ac 373e 01ae 78bf 9c5f f0be
000003d0: 00e6 d6bb 409d 4e3d b8ae 62be 7c94 20be
000003e0: 9593 de3e 1d9c 5e3e 36e0 723f 098b d43e
000003f0: 4e29 97bd f745 67be 20dc 58bf 561b d9be

stack.0.bias f4 [64]
0.22141509 -0.23413475 -0.45257157 0.5207244 -0.4844506 0.23752294 -0.042691052 0.29361665
0.3557935 -0.17307076 0.28782037 0.1611705 -0.46289173 0.2645873 0.23844935 -0.39016804
0.29952642 -0.19551904 -0.5067818 -0.398837 0.41060296 0.20335498 0.37586394 -0.54084796
-0.29271716 -0.64076555 -0.06771537 -0.0656251 0.4328897 -0.3413816 0.269333 0.18644793
-0.5273753 0.2644663 -0.43468907 -0.56665987 0.15927365 -0.6210444 0.33095592 0.118801795
0.21766785 -0.21765186 -0.21592075 -0.5276543 0.20894413 0.3239127 0.06446341 -0.49995044
-0.022996664 -0.47980168 -0.17774825 0.48159492 0.31168455 0.27060875 0.2558666 -0.27215213
0.32856217 -0.5219404 0.1697547 0.3259976 0.08465897 -0.4722615 0.4891668 0.19569077
00000000: a3ba 623e 05c1 6fbe 76b7 e7be 324e 053f
00000010: e909 f8be 3739 733e d0dc 2ebd ec54 963e
00000020: 912a b63e 7639 31be 315d 933e e109 253e
00000030: 2500 edbe fd77 873e 112c 743e 1bc4 c7be
00000040: 875b 993e 2536 48be 74bc 01bf 5d34 ccbe
00000050: 8d3a d23e 4a3c 503e 3d71 c03e 0375 0abf
00000060: 06df 95be 3609 24bf 5bae 8abd 7466 86bd
00000070: b8a3 dd3e 92c9 aebe 04e6 893e 35ec 3e3e
00000080: 1102 07bf 2068 873e 918f debe 9f10 11bf
00000090: a218 233e c4fc 1ebf 0e73 a93e 5b4e f33d
000000a0: 52e4 5e3e 21e0 5ebe 541a 5dbe 5a14 07bf
000000b0: 73f5 553e e3d7 a53e 6405 843d 81f9 ffbe
000000c0: 8063 bcbc 91a8 f5be a303 36be 9c93 f63e
000000d0: 1e95 9f3e 3b8d 8a3e f200 833e 8657 8bbe
000000e0: 4d39 a83e e39d 05bf 2dd4 2d3e 28e9 a63e
000000f0: af61 ad3d 42cc f1be 1274 fa3e 2963 483e

stack.2.weight f4 [2, 64]
0.28212065 -0.07829653 -0.07544227 0.25506732 -0.04843947 0.35640237 -0.19039021 0.18836828
0.056593902 0.08116626 -0.37216988 -0.3996853 0.021825802 -0.24830434 0.06296574 0.0869628
0.08155511 -0.061477788 0.10437461 -0.20205878 0.16176909 -0.287109 -0.09573567 0.0132741155
-0.0780081 -0.07004184 0.0025582577 -0.22836412 0.32373452 0.12558883 -0.37489387 -0.34524202
0.09076616 -0.092303894 0.045481455 -0.015005058 0.28782794 -0.07715677 -0.41048446 -0.09178969
0.2999101 -0.01623785 -0.104025505 0.029372418 -0.3847006 0.1917888 0.094608836 0.060581814
-0.19120926 0.06239673 -0.031687584 0.06830083 -0.20181529 -0.19986708 -0.106638305 -0.056872543
0.18364343 -0.07425338 0.005372218 0.22035022 0.016290601 -0.03735763 -0.23885638 0.17011958
-0.08412408 0.06892498 -0.08723185 -0.16099736 0.016076632 -0.34352574 0.16394724 -0.11116198
-0.061851583 -0.063264206 0.293012 0.22640884 0.16512327 0.17996082 -0.031185342 -0.032567207
0.005074119 -0.039448675 0.003155075 0.15612862 -0.19590911 0.28929543 0.094504654 -0.10747119
-0.066812746 -0.029104138 0.006067717 0.015402914 -0.28110197 -0.039948165 0.24696268 0.38522866
0.12892893 0.17407419 -0.025165057 -0.0020569335 -0.16363022 -0.013130254 0.21789911 0.053237107
-0.13633688 -0.00969844 -0.08217088 0.0028556224 0.19873863 -0.16985078 -0.08780454 0.04660172
0.1992929 0.10773267 0.007267769 -0.14287952 0.25412554 0.07168091 -0.09205483 0.03476649
-0.21731779 0.102493875 -0.13080385 -0.2254786 -0.074126646 0.108518526 0.08886997 -0.38809875
00000000: 1e72 903e ee59 a0bd 7a81 9abd 2f98 823e
00000010: 7768 46bd 5f7a b63e a7f5 42be 9de3 403e
00000020: 02cf 673d 7f3a a63d 0d8d bebe 8da3 ccbe
00000030: 06cc b23c 7e43 7ebe 2ff4 803d 8d19 b23d
00000040: 5e06 a73d 22d0 7bbd 5bc2 d53d 7fe8 4ebe
00000050: cca6 253e f3ff 92be 1011 c4bd ad7b 593c
00000060: b6c2 9fbd 1972 8fbd 71a8 273b 49d8 69be
00000070: 88c0 a53e 5c9a 003e 17f2 bfbe 90c3 b0be
00000080: 9ce3 b93d d309 bdbd c34a 3a3d c6d7 75bc
00000090: 2f5e 933e 5e04 9ebd 052b d2be 3cfc bbbd
000000a0: d18d 993e 3d05 85bc 530b d5bd 6d9e f03c
000000b0: 7af7 c4be 4864 443e 47c2 c13d a324 783d
000000c0: 5ccc 43be b793 7f3d d7ca 01bd 4ee1 8b3d
000000d0: aba8 4ebe f5a9 4cbe 2f65 dabd 2ff3 68bd
000000e0: 060d 3c3e 2812 98bd 6e09 b03b 7da3 613e
000000f0: de73 853c 5004 19bd c496 74be d433 2e3e
00000100: 3f49 acbd 8a28 8d3d 9da6 b2bd 7edc 24be
00000110: 24b3 833c 9be2 afbe c9e1 273e e4a8 e3bd
00000120: 1658 7dbd aa90 81bd ab05 963e b8d7 673e
00000130: 1316 293e a647 383e 6778 ffbc 3165 05bd
00000140: cc44 a63b ef94 21bd 60c5 4e3b 2ee0 1f3e
00000150: 669c 48be 881e 943e a88b c13d db19 dcbd
00000160: 1fd5 88bd cd6b eebc b3d3 c63b 815c 7c3c
00000170: 99ec 8fbe b0a0 23bd c9e3 7c3e b13c c53e
00000180: f205 043e 8140 323e f326 cebc 9ecd 06bb
00000190: ae8e 27be 4720 57bc f220 5f3e 270f 5a3d
000001a0: e59b 0bbe 35e6 1ebc 3549 a8bd 6525 3b3b
000001b0: 2482 4b3e 5ded 2dbe ded2 b3bd 72e1 3e3d
000001c0: 7013 4c3e f2a2 dc3d 7726 ee3b 024f 12be
000001d0: be1c 823e 71cd 923d 3e87 bcbd 4f67 0e3d
000001e0: 8e88 5ebe 4fe8 d13d 72f1 05be dde3 66be
000001f0: b6cf 97bd f63e de3d 7501 b63d e1b4 c6be

stack.2.bias f4 [2]
-0.04816139 -0.04922523
00000000: e144 45bd 65a0 49bd
