cartpole/model/policy_cartpole_base.pt (torch, 4447 bytes, 4 tensors)

stack.0.weight f4 [64, 4]
-0.062192056 0.47269613 -0.31601948 -0.53289527 -0.077200845 0.23269473 0.09728442 0.3897897
-0.34648672 0.21953312 0.30301246 0.6330921 0.45365915 0.5476586 -0.45224383 -0.4725765
0.1734568 -0.2824784 0.1750162 0.57124865 -0.472106 -0.062246997 0.48624018 0.37256008
-0.18378443 0.36509377 0.7768841 0.7044375 0.026013043 -0.2638461 -0.6473368 -0.57220525
0.52953184 -0.1751634 0.3428574 0.18400942 -0.36271617 0.3831236 0.08164909 0.6358844
-0.31742328 -0.24855773 -0.012346847 -0.6877717 0.096008 0.37015164 -0.6657892 -0.42906386
0.17173204 0.43936506 -0.55036837 -0.7440612 0.5197879 0.1279723 0.5576875 0.23557577
2.1729255e-05 0.0131123625 0.6540002 0.68727523 -0.520047 -0.43410137 -0.5525387 -0.45981357
-0.28398615 0.0916666 0.16824512 0.17333959 0.37591064 -0.10921995 -0.27436334 0.0385053
-0.19022453 -0.46085945 -0.20569904 -0.26483607 -0.24915577 0.05808712 0.8504848 0.30445728
0.3300484 -0.007152525 -0.08447164 -0.59243923 0.27401474 -0.39495704 0.36231545 -0.09403844
0.20504358 0.33650228 -0.12195298 -0.25700533 0.0037510777 0.43663943 -0.15734075 0.3877991
-0.14642733 0.016112173 0.37521663 0.41027063 0.26245093 -0.45333022 -0.2517373 0.44602647
-0.34189093 -0.39118773 0.13941406 0.19998747 0.3126793 -0.06762771 0.41176462 -0.33549652
-0.3848217 -0.3172686 0.24434973 -0.056004368 0.0536825 -0.40548664 0.041229587 0.35218155
-0.4518638 0.07206777 -0.6683414 -0.36865273 -0.096863225 0.3595499 -0.3462207 -0.44295135
0.44792095 0.32781246 -0.14175723 -0.21466795 -0.024464691 0.26112697 0.22661619 0.71128577
0.13821723 0.55950874 -0.12579128 -0.039691176 0.24497291 -0.06603162 -0.26674175 -0.23337424
-0.18438415 0.41321135 -0.06381233 -0.2659132 -0.35092825 0.5494026 -0.27021262 -0.5944451
0.031470712 0.22034046 -0.3876972 -0.32606903 -0.077170506 0.49888393 -0.15651393 -0.6376831
0.17929405 0.38040516 -0.003968659 0.11783353 -0.3572888 -0.20259386 -0.33817196 -0.20777151
0.4394528 -0.5682217 -0.17539392 -0.37695026 0.011047772 -0.26420757 0.041479502 0.060225803
0.21229449 0.60068953 -0.26813206 -0.58793616 -0.2550796 0.24321738 0.7434348 0.5979703
0.002279057 -0.1591776 0.107018575 -0.50440085 -0.17115995 -0.3585388 -0.21960203 0.30197388
-0.30523846 0.35579687 -0.41688892 -0.08699908 0.27425557 0.20108865 -0.0007629226 -0.18656869
0.2213 -0.06283206 0.05932318 0.35496303 -0.11809353 0.25886703 0.34494358 -0.2703802
-0.08202001 0.28861064 -0.7697786 -0.36106822 0.535954 0.21215925 -0.19450599 -0.21658184
0.08611645 -0.19989575 -0.2059203 0.34904104 0.22182842 0.4371518 0.40172005 0.07751441
0.38312316 -0.16983946 0.32929778 0.6195484 0.09302564 0.14300196 -0.51236945 -0.44511527
0.07647766 -0.48254913 0.3808113 -0.33654758 0.021145374 -0.35451922 0.28980228 -0.1635644
0.086902976 -0.003609538 -0.045725524 0.058178425 0.15933806 0.4707851 0.6180018 0.579697
-0.039349046 -0.4208887 0.15417397 0.54599786 -0.24075492 -0.28460243 0.36370248 0.16130735
00000000: 19bd 7ebd 3a05 f23e 4ecd a1be d36b 08bf
00000010: 7a1b 9ebd 8747 6e3e 0e3d c73d 8492 c73e
00000020: b566 b1be 4acd 603e 7324 9b3e 5312 223f
00000030: 0346 e83e 5b33 0c3f 818c e7be 8cf5 f1be
00000040: a99e 313e 02a1 90be 7237 333e 5a3d 123f
00000050: e1b7 f1be b5f6 7ebd 79f4 f83e 32c0 be3e
00000060: fc31 3cbe 92ed ba3e e0e1 463f 0456 343f
00000070: 4e19 d53c d616 87be ddb7 25bf 0b7c 12bf
00000080: 668f 073f 095e 33be 018b af3e f76c 3c3e
00000090: efb5 b9be c728 c43e a337 a73d 52c9 223f
000000a0: 4e85 a2be eb85 7ebe 6e4a 4abc ce11 30bf
000000b0: d89f c43d 8484 bd3e 2971 2abf 42ae dbbe
000000c0: 86da 2f3e 75f4 e03e f1e4 0cbf cb7a 3ebf
000000d0: d210 053f 2c0b 033e 9cc4 0e3f c63a 713e
000000e0: 3847 b637 3cd5 563c 8f6c 273f 45f1 2f3f
000000f0: cd21 05bf 8942 debe 2d73 0dbf af6c ebbe
00000100: a266 91be b3bb bb3d 7348 2c3e ef7f 313e
00000110: 5c77 c03e b6ae dfbd 5a79 8cbe bcb7 1d3d
00000120: 38ca 42be c5f5 ebbe c5a2 52be 9898 87be
00000130: b122 7fbe c3ec 6d3d 5fb9 593f d3e1 9b3e
00000140: 1bfc a83e ba5f eabb 78ff acbd 19aa 17bf
00000150: a94b 8c3e cf37 cabe 6981 b93e 3a97 c0bd
00000160: f2f6 513e 074a ac3e 7cc2 f9bd 3496 83be
00000170: a4d4 753b 348f df3e ef1d 21be 9b8d c63e
00000180: 0cf1 15be adfd 833c 651c c03e fe0e d23e
00000190: f85f 863e e61a e8be b6e3 80be 955d e43e
000001a0: 540c afbe c249 c8be 8fc2 0e3e 84c9 4c3e
000001b0: 8017 a03e 6680 8abd d0d2 d23e 33c6 abbe
000001c0: 5a07 c5be 0871 a2be d136 7a3e d664 65bd
000001d0: 2ee2 5b3d f29b cfbe 5be0 283d 2451 b43e
000001e0: b15a e7be 4498 933d 6c18 2bbf 0dc0 bcbe
000001f0: 3a60 c6bd ed16 b83e d743 b1be 85ca e2be
00000200: e555 e53e 09d7 a73e cf28 11be ead1 5bbe
00000210: 2d6a c8bc 6fb2 853e 130e 683e d316 363f
00000220: d188 0d3e f73b 0f3f 6ecf 00be 3793 22bd
00000230: 2eda 7a3e 963b 87bd 6092 88be a8f9 6ebe
00000240: 33cf 3cbe 7090 d33e 0ab0 82bd c625 88be
00000250: deac b3be a6a5 0c3f 4f59 8abe 8e2d 18bf
00000260: 6fe7 003d eea0 613e 3f80 c6be 85f2 a6be
00000270: 920b 9ebd b76d ff3e 3045 20be 333f 23bf
00000280: dc98 373e 77c4 c23e 860b 82bb b552 f13d
00000290: 8fee b6be c474 4fbe e024 adbe 0ec2 54be
000002a0: f5ff e03e fa76 11bf 779a 33be a0ff c0be
000002b0: b701 353c 3746 87be 69e6 293d 55af 763d
000002c0: ba63 593e cac6 193f 9b48 89be fc82 16bf
000002d0: cb99 82be fa0d 793e be51 3e3f 9514 193f
000002e0: 3b5c 153b 74ff 22be 8e2c db3d 6a20 01bf
000002f0: 8e44 2fbe 6692 b7be 5bdf 60be 529c 9a3e
00000300: 3748 9cbe 022b b63e 7772 d5be 932c b2bd
00000310: 3a6b 8c3e 2fea 4d3e defe 47ba dd0b 3fbe
00000320: 789c 623e 18ae 80bd ddfc 723d b7bd b53e
00000330: 05db f1bd 388a 843e 729c b03e 466f 8abe
00000340: 1bfa a7bd c6c4 933e 3610 45bf efdd b8be
00000350: 4834 093f 4640 593e 942c 47be a1c7 5dbe
00000360: d25d b03d 79b1 4cbe c5dc 52be 82b5 b23e
00000370: fd26 633e 5cd2 df3e 40ae cd3e e0bf 9e3d
00000380: b828 c43e 65ea 2dbe b899 a83e b99a 1e3f
00000390: 3a84 be3d 1b6f 123e a52a 03bf 26e6 e3be
000003a0: 52a0 9c3d ae10 f7be b3f9 c23e f74f acbe
000003b0: 1039 ad3c 8b83 b5be f760 943e 6d7d 27be
000003c0: 30fa b13d 008e 6cbb b04a 3bbd 804c 6e3d
000003d0: 8429 233e bf0a f13e 5e35 1e3f 0667 143f
000003e0: 772c 21bd b97e d7be c8df 1d3e 84c6 0b3f
000003f0: 7588 76be 69b7 91be 3637 ba3e c12d 253e

stack.0.bias f4 [64]
-0.04931284 0.09993211 0.20004468 0.10851987 0.0389318 -0.5366808 0.29317617 0.3676967
0.42315105 -0.09381768 0.26515394 0.28700674 0.45881337 0.31221315 0.17768438 0.34293398
0.34172118 -0.08134806 -0.47563085 0.29384613 0.4369347 0.45684305 0.10331321 -0.4237523
-0.23354745 -0.4009436 0.20377234 -0.42141 -0.4955051 -0.47885457 0.18276873 0.21964557
0.049589854 0.48099265 -0.3386503 0.18210079 -0.062506534 0.41452363 -0.5542507 -0.15791401
-0.28991306 0.13305812 0.26041624 -0.37795582 -0.23509362 0.13413037 0.3951804 -0.029015373
0.45206043 -0.12410205 0.30470374 -0.008878452 0.13908428 -0.34608424 -0.43696186 -0.38776025
0.4204935 0.13471244 -0.35073498 -0.32481733 -0.3598644 -0.19986366 0.33173466 -0.45973843
00000000: 43fc 49bd 35a9 cc3d 83d8 4c3e aa3f de3d
00000010: f376 1f3d ea63 09bf 301b 963e be42 bc3e
00000020: 41a7 d83e 7c23 c0bd 42c2 873e 8cf2 923e
00000030: 96e9 ea3e 67da 9f3e e5f2 353e 0b95 af3e
00000040: 14f6 ae3e d099 a6bd e385 f3be 0073 963e
00000050: e8b5 df3e 55e7 e93e e095 d33d 10f6 d8be
00000060: 1027 6fbe 7b48 cdbe b2a9 503e 0dc3 d7be
00000070: d8b2 fdbe 6d2c f5be ba27 3b3e c5ea 603e
00000080: bb1e 4b3d ab44 f63e 9263 adbe a178 3a3e
00000090: 6d03 80bd 713c d43e 60e3 0dbf 36b4 21be
000000a0: 7c6f 94be 6340 083e 4755 853e 6d83 c1be
000000b0: 62bc 70be 7959 093e 1655 ca3e a6b1 edbc
000000c0: 7774 e73e 3729 febd 2102 9c3e ed76 11bc
000000d0: 1c6c 0e3e f431 b1be 77b9 dfbe 8388 c6be
000000e0: ed4a d73e 0ff2 093e 8993 b3be 754e a6be
000000f0: 2640 b8be 0fa9 4cbe 20d9 a93e d662 ebbe

stack.2.weight f4 [2, 64]
0.2003036 -0.25840008 -0.26622906 0.12569183 -0.121154845 -0.015281587 -0.2850299 0.13958873
-0.106713615 -0.008807882 0.11719587 0.23136975 0.1104171 -0.19913915 -0.35543647 0.14272985
0.01833785 -0.16502216 -0.035190344 -0.050731122 0.029649029 -0.05730586 -0.030035784 0.08703589
-0.11318149 0.07784588 -0.08314581 0.1446634 -0.09871158 -0.13124721 0.056749653 0.19913837
0.09107928 -0.20191842 0.17887905 0.14218304 0.19581462 0.13277677 -0.063975304 0.047729865
0.06511909 0.010906992 0.05204058 0.09278027 0.17731495 -0.27344838 0.020236652 -0.03266652
0.12430325 -0.013011993 -0.068738855 0.030891892 0.12012688 0.074184634 -0.08610309 0.1037817
-0.22690885 0.045431785 0.011575784 -0.039820295 0.051808864 -0.17481254 -0.1817217 0.017232817
-0.09889537 0.18916853 0.31998718 -0.10057069 0.018896507 0.06439178 0.15802045 -0.05742205
0.08633215 0.1731571 -0.12842488 -0.13321683 -0.22202025 0.21566856 0.31956515 -0.2042073
0.04246272 -0.012852993 0.078151524 0.19654576 -0.10335314 -0.0023477233 -0.088927254 0.033635687
0.020931734 0.13451359 -0.036699545 -0.07349305 0.13743809 0.065941095 -0.22201437 -0.06067708
-0.07871726 0.1411421 -0.10925234 0.017294165 -0.01189871 -0.099716745 0.04783977 -0.25959367
-0.10167667 -0.08437351 -0.015749998 0.12393859 -0.11996738 0.15666872 -0.058739353 0.0983469
-0.016844055 -0.012084063 0.013985283 0.0304534 -0.29260302 -0.17750776 0.022969713 -0.10423543
0.0622815 -0.17526186 -0.055724822 0.003808627 0.034738764 0.16771422 0.1291607 -0.035952143
00000000: 631c 4d3e 044d 84be 2d4f 88be 5cb5 003e
00000010: 0820 f8bd 9f5f 7abc 70ef 91be 59f0 0e3e
00000020: ab8c dabd ef4e 10bc 6304 f03d 31ec 6c3e
00000030: 5c22 e23d 22eb 4bbe c5fb b5be c627 123e
00000040: 4239 963c 92fb 28be c023 10bd 70cb 4fbd
00000050: 85e2 f23c 8db9 6abd 9b0d f6bc df3f b23d
00000060: b2cb e7bd a96d 9f3d 5a48 aabd a422 143e
00000070: 4c29 cabd ab65 06be 5372 683d eeea 4b3e
00000080: c687 ba3d b4c3 4ebe 122c 373e 6e98 113e
00000090: a183 483e a2f6 073e 7c05 83bd 6480 433d
000000a0: 285d 853d 3db3 323c 8128 553d 9503 be3d
000000b0: 0d92 353e 6d01 8cbe 56c7 a53c 54cd 05bd
000000c0: b492 fe3d 4130 55bc f5c6 8cbd fe10 fd3c
000000d0: 1505 f63d 1dee 973d d156 b0bd 808b d43d
000000e0: cb5a 68be ae16 3a3d 5ba8 3d3c 9b1a 23bd
000000f0: 8835 543d 0f02 33be 4115 3abe d62b 8d3c
00000100: a889 cabd 65b5 413e 5cd5 a33e 02f8 cdbd
00000110: d9cc 9a3c d6df 833d 1dd0 213e 6233 6bbd
00000120: e9ce b03d 1850 313e d081 03be fe69 08be
00000130: 4759 63be 38d8 5c3e 0b9e a33e b81b 51be
00000140: 64ed 2d3d 5c95 52bc e80d a03d 4b43 493e
00000150: d0aa d3bd 43dc 19bb 7e1f b6bd 93c5 093d
00000160: 0779 ab3c eebd 093e 4352 16bd 8683 96bd
00000170: 92bc 0c3e 200c 873d bc57 63be 8888 78bd
00000180: 8436 a1bd 8e87 103e b1bf dfbd 7eac 8d3c
00000190: cff2 42bc 4b38 ccbd a2f3 433d 76e9 84be
000001a0: dc3b d0bd 05cc acbd 2406 81bc 84d3 fd3d
000001b0: 75b1 f5bd c46d 203e ad98 70bd 196a c93d
000001c0: 8bfc 89bc 3cfc 45bc 8722 653c 6979 f93c
000001d0: 10d0 95be 98c4 35be fb2a bc3c 6379 d5bd
000001e0: e31a 7f3d d877 33be b63f 64bd 289a 793b
000001f0: 3c4a 0e3d 47bd 2b3e b442 043e 8e42 13bd

stack.2.bias f4 [2]
-0.02133563 0.12857603
00000000: 0fc8 aebc 6fa9 033e
