cartpole/model/policy_cartpole_frompy.pt (torch, 4531 bytes, 4 tensors)

stack.0.weight f4 [64, 4]
0	0xbe25d74d	-0.16195412
1	0xbdb8a622	-0.09016062
2	0xbf204425	-0.6260398
3	0x3cf4aacc	0.029866599
4	0xbd9249bd	-0.07142971
5	0x3d8ef47b	0.06980225
6	0x3f129c90	0.57270145
7	0xbe3217e5	-0.17391928
8	0x3ee1dde9	0.44114617
9	0x3ef508b5	0.47858205
10	0xbf000414	-0.5000622
11	0x3d8f5341	0.06998301
12	0xbc56bae8	-0.013106085
13	0x3c14d317	0.009083531
14	0xbee64df0	-0.44981337
15	0x3c7da1d1	0.015480475
16	0x3d964ec9	0.07339246
17	0xbebe45bb	-0.37162575
18	0xbe662f70	-0.22479033
19	0x3d3d6cf9	0.046246503
20	0x3ec53f2e	0.38524765
21	0xbe15df12	-0.14635876
22	0xbf2a6245	-0.665562
23	0xbeb4d0f0	-0.35315657
24	0x3d6ad5cb	0.057332795
25	0xbeaaf29d	-0.33388224
26	0xbef20b7a	-0.4727438
27	0xbdaa008e	-0.08300887
28	0xbdd1baf8	-0.102407396
29	0x3e502ae3	0.2032886
30	0xbdc17e2e	-0.09447895
31	0xbcd4fb62	-0.025998775
32	0x3eb99429	0.3624585
33	0x3ed35eee	0.41283363
34	0x3ea166c6	0.31523722
35	0x3eff7cc9	0.4989989
36	0xbe69a7d7	-0.22817932
37	0x3ea9b5ab	0.33146414
38	0xbe18afcd	-0.14910813
39	0xbe253f15	-0.16137345
40	0xbe68bc93	-0.22728185
41	0x3c8566cc	0.016284369
42	0x3cc73e2d	0.02432164
43	0xbeabf341	-0.33584026
44	0x3ee7bf6a	0.45263225
45	0x3ecbb062	0.39783007
46	0xbd77034c	-0.06030588
47	0xbe9d0ae2	-0.30672365
48	0x3e411573	0.18855838
49	0x3ed17224	0.40907395
50	0x3e47b93d	0.19504257
51	0xbed4edf3	-0.4158779
52	0x3d8d5091	0.069001324
53	0xbecf230f	-0.40456435
54	0xbceee4df	-0.029161869
55	0x3e8ee3a7	0.2790806
56	0x3ea07bba	0.31344396
57	0x3e39d820	0.18148851
58	0x3eb43266	0.351947
59	0x3f08414f	0.53224653
60	0x3dd2d4d5	0.10294501
61	0xbed54617	-0.41655037
62	0xbefd5262	-0.49476916
63	0xbeba6cd0	-0.36411142
64	0xbec0393b	-0.37543663
65	0x3ec6c2da	0.38820535
66	0xbe2151a6	-0.15753803
67	0xbcf3b075	-0.029747227
68	0xbee8589a	-0.45380098
69	0x3ca912cb	0.020638844
70	0xbe29b5b7	-0.16573225
71	0xbcbdcb8a	-0.023168344
72	0x3de99ef0	0.11407268
73	0x3e83f86d	0.2577547
74	0xbe33a475	-0.17543204
75	0xbee5cc14	-0.44882262
76	0xbe64404f	-0.22290157
77	0x3e2adcba	0.16685763
78	0x3f0959cc	0.53652644
79	0x3ed93323	0.42421827
80	0x3e233b2e	0.15940544
81	0x3e1b09ae	0.15140411
82	0x3f2abe9a	0.66697085
83	0x3f20dfb4	0.62841344
84	0xbea0d33f	-0.31411168
85	0x3e588faa	0.21148553
86	0x3e414e15	0.18877442
87	0xbf0e5bff	-0.55609125
88	0x3e8c5741	0.2741032
89	0x3e6cda3c	0.23130125
90	0x3e61ddb4	0.2205723
91	0x3eecdea8	0.46263623
92	0x3db7a96e	0.08967863
93	0xbea29dda	-0.31761056
94	0x3e8bdf3f	0.2731876
95	0xbd58a770	-0.052894056
96	0x3e266010	0.16247582
97	0x3ebb3b29	0.36568573
98	0x3e792c4d	0.24333306
99	0xbd04c9da	-0.032419063
100	0x3cdab47c	0.02669739
101	0xbd9a29d7	-0.075275116
102	0x3e9ee023	0.31030378
103	0x3f1e6546	0.6187328
104	0xbd523883	-0.051323425
105	0xbefda830	-0.4954238
106	0x3ec060da	0.37573892
107	0x3dc43180	0.09579754
108	0x3da08f2b	0.07839807
109	0x3ea934a0	0.33047962
110	0x3f0ea241	0.5571633
111	0x3f1d4bb2	0.61443627
112	0xbe639206	-0.22223672
113	0xbe015a6c	-0.1263215
114	0x3d9ac3e9	0.07556898
115	0x3ef4192b	0.47675452
116	0x3ed5dbee	0.41769356
117	0x3ec6fa3e	0.38862795
118	0x3db4a73d	0.08820961
119	0xbe4a7ac5	-0.19773395
120	0xbe6ca975	-0.23111518
121	0x3e185dfa	0.14879599
122	0x3ecf4f84	0.40490353
123	0x3f14c8c8	0.5811887
124	0x3e93a6a7	0.28838083
125	0xbebf04ca	-0.3730834
126	0xbe9c51a9	-0.30531052
127	0xbf01b804	-0.5067141
128	0x3eb86f57	0.36022446
129	0xbeaf45d2	-0.34232956
130	0xbefb54b7	-0.4908807
131	0xbce5046d	-0.027956212
132	0x3e095db3	0.1341465
133	0x3e842108	0.2580645
134	0xbe66ace6	-0.22526893
135	0x3e6c667c	0.2308597
136	0x3ebef190	0.37293673
137	0x3d911efa	0.070859864
138	0x3e9176c2	0.28410918
139	0xbf138553	-0.5762531
140	0xbeaf0024	-0.34179795
141	0x3e514250	0.20435452
142	0xbf0dcc7a	-0.5539013
143	0xbdc3da3a	-0.09563108
144	0x3f0068f4	0.50160146
145	0x3e41c459	0.18922557
146	0x3e21ff0f	0.15819953
147	0x3edb3731	0.42815545
148	0x3ef0c04f	0.4702172
149	0xbec9ed59	-0.39438894
150	0x3d867fcf	0.06567346
151	0xbd604e68	-0.054762274
152	0xbdc34d31	-0.095362075
153	0xbe863bcf	-0.26217505
154	0x3e060989	0.13089575
155	0x3e3f56bb	0.18685429
156	0x3e3e4afd	0.18583293
157	0xbca43c34	-0.020048238
158	0x3de419a9	0.11137707
159	0x3d6ff991	0.058587614
160	0x3e94f2a7	0.2909138
161	0x3d9945bb	0.07484003
162	0xbf1b8aea	-0.6075884
163	0xbd9c6461	-0.07636333
164	0xbe4b8c94	-0.19877845
165	0xbe7eeb11	-0.24894358
166	0x3edd7181	0.4325066
167	0xbdce6e1d	-0.10079596
168	0xbeb22a18	-0.3479774
169	0xbdad9ced	-0.08477197
170	0xbda13148	-0.07870728
171	0xbe1a94ee	-0.15095875
172	0xbecb912d	-0.39759198
173	0xbdfc40fe	-0.12317084
174	0xbe99b86e	-0.3002352
175	0xbe814c9a	-0.25253755
176	0xbec23779	-0.37932947
177	0xbe09e736	-0.13467106
178	0xbe09cfa2	-0.13458112
179	0x3df2fd20	0.11864686
180	0xbdae462f	-0.0850948
181	0xbeeb9425	-0.46011463
182	0xbeb6aab0	-0.356771
183	0x3e24ec6f	0.16105817
184	0x3e64892e	0.22317955
185	0xbeab3d3b	-0.33445153
186	0x3e8ec7a1	0.2788668
187	0x3dd199f4	0.10234442
188	0xbdf62717	-0.120191745
189	0xbeee5db8	-0.46555877
190	0xbdc5a9e7	-0.09651547
191	0xbe51a02c	-0.20471257
192	0x3da639a1	0.081164606
193	0xbe6b26e3	-0.22964053
194	0xbee1f626	-0.4413311
195	0x3edca2dd	0.43093005
196	0x3cdc14b9	0.02686535
197	0xbeec85de	-0.46195883
198	0xbbad7b06	-0.0052942066
199	0xbe0d446d	-0.13795634
200	0x3e852a24	0.26008713
201	0xbe11d765	-0.14242323
202	0xbe9dc041	-0.3081074
203	0xbd9bdae9	-0.07610113
204	0xbbbe7ec7	-0.005813453
205	0x3ea48e1d	0.32139674
206	0xbdc94963	-0.098284505
207	0xbf024e8f	-0.5090112
208	0xbef39a77	-0.47578785
209	0xbe88ab6b	-0.26693282
210	0xbd9089d4	-0.07057539
211	0x3ddde5b9	0.10834832
212	0xbea42d31	-0.32065728
213	0x3e71284c	0.23550528
214	0xbf0f693e	-0.5601996
215	0xbeda1492	-0.4259382
216	0x3dbc2ae5	0.09187869
217	0x3ec6a75d	0.38799563
218	0x3dd484f7	0.103769235
219	0xbecee67d	-0.40410224
220	0x3ed2ecec	0.41196382
221	0x3eb884c7	0.360388
222	0xbd717df2	-0.058958
223	0x3ecc22c2	0.39870268
224	0xbeea740f	-0.4579167
225	0x3e6af082	0.22943309
226	0xbe56b3e5	-0.20967062
227	0xbe10e27c	-0.14148897
228	0x3dc3a9f3	0.095538996
229	0xbdfee454	-0.12445894
230	0xbd53897e	-0.051644795
231	0xbeb60cbc	-0.3555659
232	0x3e617b50	0.22019696
233	0xbd9fd6a3	-0.078046106
234	0xbe988d62	-0.29795367
235	0xbf058f2e	-0.521716
236	0xbd685345	-0.056720037
237	0x3ec11e3a	0.37718374
238	0xbee7213f	-0.45142552
239	0x3e9668ba	0.29376775
240	0xbddfbbb9	-0.10924477
241	0xbe6d43d1	-0.23170401
242	0x3ee1c6ce	0.44096988
243	0xbde275ad	-0.11057601
244	0x3e72cd99	0.23711242
245	0x3ea7244a	0.32644874
246	0x3eee5c47	0.46554777
247	0xbe163d0f	-0.1467173
248	0x3e0609bc	0.13089651
249	0x3e97b9b3	0.29633865
250	0x3e8a65a7	0.2703068
251	0xbf066d7f	-0.5251083
252	0xbeac3f3d	-0.33641997
253	0xbda7fb3f	-0.08202218
254	0xbecb6e34	-0.39732516
255	0xbe92c295	-0.2866408

stack.0.bias f4 [64]
0	0x3eacabb3	0.33724746
1	0x3edc1001	0.4298096
2	0x3dca7cd0	0.09887087
3	0x3d66ce39	0.056349013
4	0xbee2eb32	-0.44320065
5	0x3eaf3fd2	0.3422838
6	0xbddc4041	-0.10754443
7	0x3ec46b06	0.38362902
8	0x3e91fb52	0.28512055
9	0x3c8f5f8d	0.017501617
10	0x3e755790	0.23959184
11	0x3e87e0b7	0.2653863
12	0x3d29a0e7	0.041413214
13	0xbf05c165	-0.5224822
14	0x3e23ad4d	0.15984078
15	0x3e8972e0	0.26845455
16	0x3e928801	0.28619388
17	0xbebac19a	-0.3647583
18	0x3de588d2	0.11207737
19	0x3e5ef102	0.21771625
20	0x3e9e0c16	0.30868596
21	0xbd37cbb5	-0.044872005
22	0x3dd2f630	0.10300863
23	0xbe24289b	-0.16031115
24	0x3ea3cc9e	0.31992048
25	0x3e931359	0.287257
26	0x3ed8d543	0.42350206
27	0x3e5b94d2	0.21443489
28	0x3db6cd77	0.08925908
29	0x3ec1bb6a	0.37838298
30	0x3ec4805a	0.38379174
31	0x3e8931d4	0.26795828
32	0xbd163504	-0.036671653
33	0x3ee41e9d	0.44554606
34	0xbe7a9e7c	-0.2447452
35	0xbda24ef1	-0.07925213
36	0x3eaa4d43	0.3326207
37	0x3e786445	0.24257
38	0x3eb15528	0.34635282
39	0xbe43b88f	-0.19113372
40	0x3e3fb509	0.18721403
41	0xbe151021	-0.14556934
42	0xbdb6da74	-0.089283854
43	0xbe11f850	-0.1425488
44	0xbea7fc7b	-0.32809815
45	0xbda4d1d3	-0.08047833
46	0xbee6a870	-0.45050383
47	0xbc184105	-0.009292846
48	0xbecba956	-0.3977763
49	0xbd672797	-0.05643424
50	0x3e3a2a75	0.18180259
51	0x3e5752fd	0.21027751
52	0x3e810b50	0.25203943
53	0x3c147026	0.009059941
54	0xbe254a32	-0.16141585
55	0xbda96774	-0.08271685
56	0x3ec2de44	0.380602
57	0xbee04890	-0.4380536
58	0x3ed2fd14	0.41208708
59	0xbee20e68	-0.44151616
60	0x3e6dce50	0.23223233
61	0x3eca32d2	0.39491898
62	0x3ec21f75	0.37914625
63	0xbcd0481a	-0.025425006

stack.2.weight f4 [2, 64]
0	0x3d01448f	0.031559523
1	0xbd85b12d	-0.06527934
2	0x3db4aad3	0.08821645
3	0x3e08f3ea	0.13374296
4	0x3d59a1a2	0.05313266
5	0x3e1d881f	0.15383957
6	0x3e072f4d	0.13201638
7	0xbd5cf783	-0.053946983
8	0xbdb0d106	-0.08633618
9	0x3e0fa95d	0.1402945
10	0x3e151916	0.14560351
11	0x3e0c863d	0.13723083
12	0x3d3baa70	0.04581684
13	0xbca071cd	-0.019585514
14	0xbdbeb0c1	-0.09311057
15	0xbb1a5f4a	-0.0023555332
16	0xbb848758	-0.0040444545
17	0xbbe96e11	-0.0071237166
18	0x3c550015	0.013000508
19	0xbd69635e	-0.05697953
20	0xbd811835	-0.06303445
21	0x3e1f2dbe	0.15544793
22	0xbd9e6d74	-0.0773572
23	0x3da645a3	0.08118751
24	0x3dbb30d0	0.091401696
25	0xbe054ddc	-0.13017982
26	0x3d87bf5a	0.06628294
27	0xbe5a9ddb	-0.2134928
28	0xbd4feae4	-0.05076112
29	0x3d788112	0.060669966
30	0xbd303233	-0.043016624
31	0x3e093fcd	0.13403244
32	0x3d7bfa9e	0.061518304
33	0xbe04ac1b	-0.12956278
34	0x3e023ac9	0.12717737
35	0x3dc04851	0.09388793
36	0xbdcaa4ff	-0.09894752
37	0xbb574816	-0.0032849363
38	0xbdc9c734	-0.09852448
39	0xbd62cd35	-0.055371482
40	0x3e020225	0.1269613
41	0xbc114795	-0.008867164
42	0xbd95a43f	-0.07306718
43	0x3d96c93c	0.07362601
44	0x3dcb6002	0.099304214
45	0x3c9033cc	0.017602824
46	0xbc0a6524	-0.008446965
47	0x3d52c109	0.051453624
48	0xbdef25de	-0.116771445
49	0x3d2baec0	0.0419147
50	0x3d29da68	0.041468054
51	0x3e1cf7a5	0.15328844
52	0xbd0636da	-0.032767154
53	0x3e1de872	0.15420702
54	0x3e1ab572	0.15108278
55	0x3d1cf4fc	0.038319573
56	0x3deed3bf	0.11661481
57	0x3dbe67a7	0.09297114
58	0x3d65b9b4	0.056085303
59	0x3cc232f7	0.023705943
60	0x3d3c42e1	0.04596222
61	0xbc1843c5	-0.009293501
62	0xbc9a0c41	-0.018804671
63	0xbcb0b880	-0.021572351
64	0xbd37d159	-0.044877384
65	0x3cacd39c	0.021096997
66	0xbd32f436	-0.04368993
67	0xbb18e470	-0.0023329519
68	0x3da7ebd3	0.08199277
69	0xbe01f1bc	-0.1268987
70	0xbdf0a547	-0.11750274
71	0xbd9e0ad7	-0.07716911
72	0x3e2e8774	0.17043859
73	0xbdd0367c	-0.10166642
74	0x3d47831b	0.048709016
75	0xbd9282b2	-0.071538344
76	0xbe14a40d	-0.14515705
77	0xbd85d5d0	-0.06534922
78	0x3e38127d	0.17975803
79	0xbe104cb8	-0.14091766
80	0xbd42c9d1	-0.04755575
81	0x3de51406	0.1118546
82	0xbd21244c	-0.039341256
83	0x3dfcc208	0.12341696
84	0x3e0dc7a3	0.13845687
85	0xbe1cf97b	-0.15329544
86	0x3e176613	0.14785032
87	0x3d89e9d5	0.06734053
88	0x3d968893	0.07350268
89	0x3e16b197	0.14716183
90	0x3ced9a6c	0.029004298
91	0x3d8718af	0.06596505
92	0x3da61115	0.08108727
93	0xbd961635	-0.073284544
94	0x3d84b43e	0.06479691
95	0xbe2862f9	-0.16444005
96	0xbdd4f9f9	-0.10399241
97	0xbd969038	-0.07351726
98	0xbde417ec	-0.11137375
99	0xbe1ed39c	-0.1551041
100	0x3cf74c17	0.03018765
101	0xbc95169c	-0.018199258
102	0x3da7477d	0.08167932
103	0xbd748505	-0.05969717
104	0xbe0bb466	-0.13643035
105	0x3d0bf718	0.034171194
106	0x3bc22287	0.005924526
107	0x3ca2ea1d	0.019887025
108	0x3e04996d	0.12949152
109	0x3d95b3b5	0.07309667
110	0xbd33c07f	-0.04388475
111	0xbc640697	-0.013917587
112	0x3dbe08d0	0.092790246
113	0xbdb742b0	-0.089482665
114	0x3cea22ea	0.028581101
115	0x3ba01587	0.0048853788
116	0x3d914c2e	0.07094608
117	0xbe62523a	-0.2210168
118	0xbbb70565	-0.00558536
119	0x3dc549e0	0.09633231
120	0xbd8561d1	-0.065127976
121	0xbdb1f8ed	-0.08690057
122	0xbdf3becc	-0.11901626
123	0xbdbfd6e5	-0.0936716
124	0x3d0bad06	0.034100555
125	0x3dbe77fd	0.0930023
126	0xbd4f7932	-0.05065269
127	0xbc78e7c8	-0.01519198

stack.2.bias f4 [2]
0	0xbce15753	-0.02750746
1	0x3dafe0b4	0.085877806
