cartpole/model/policy_cartpole_modified.pt (torch, 4551 bytes, 4 tensors)

stack.0.weight f4 [64, 4]
0	0xbdd2f0f1	-0.10299862
1	0x3eeb3f25	0.45946613
2	0xbf05cad0	-0.5226259
3	0x3e3cfb57	0.18455254
4	0x3edbfce9	0.42966393
5	0xbdf25fb1	-0.11834658
6	0xbef5707e	-0.47937387
7	0x3eca6126	0.39527243
8	0x3f01f576	0.5076517
9	0x3e33ef37	0.17571722
10	0x3ea64b06	0.32479113
11	0x3e89405e	0.2680692
12	0xbe2a742f	-0.16645883
13	0xbcc68eab	-0.024237951
14	0xbe299f73	-0.16564731
15	0xbeadd60f	-0.33952376
16	0xbdd916d7	-0.106000595
17	0x3dad6e48	0.084683
18	0xbef97cd8	-0.4872806
19	0xbdd55988	-0.10417467
20	0x3ceac722	0.028659407
21	0x3e371f1c	0.17882961
22	0x3e2a3f6e	0.16625759
23	0xbedb7766	-0.4286453
24	0xbec6f275	-0.38856855
25	0x3ed654be	0.41861528
26	0x3ecc25d9	0.39872625
27	0x3ef940e9	0.48682335
28	0x3dd6ef02	0.10494806
29	0x3f04aa1c	0.51822066
30	0xbe2e9438	-0.17048728
31	0xbe8fe8b1	-0.28107217
32	0x3e818e27	0.25303766
33	0xbd7bb954	-0.06145604
34	0xbec1e78a	-0.37871963
35	0xbe873be2	-0.26412874
36	0xbdc393f3	-0.095497034
37	0xbf067557	-0.52522796
38	0xbd897f97	-0.06713789
39	0x3e03e4a9	0.12880196
40	0xbeff9175	-0.49915662
41	0x3eb8f18a	0.3612178
42	0xbe7a7c84	-0.24461561
43	0xbecf4bff	-0.40487668
44	0x3ee4500e	0.44592327
45	0xbc400f1b	-0.011722351
46	0x3dfea0a5	0.12432984
47	0xbd3ee4bf	-0.046604868
48	0xbec1961a	-0.3780983
49	0x3ed3fd47	0.41404173
50	0x3f089ba5	0.53362495
51	0xbe8c7458	-0.27432513
52	0xbee0064c	-0.43754804
53	0x3efd926b	0.4952577
54	0xbee38556	-0.44437665
55	0xbf0bf7bf	-0.54674906
56	0x3eb6284e	0.35577625
57	0xbec7a69e	-0.38994306
58	0x3f015d41	0.5053292
59	0x3c56d9c4	0.013113443
60	0xbe3cc1b9	-0.18433274
61	0xbe933472	-0.2875095
62	0xbe3237c9	-0.17404093
63	0x3e947801	0.28997806
64	0x3ef781bc	0.48341167
65	0xbd5f2c00	-0.05448532
66	0xbeb8e77e	-0.36114115
67	0xbeed1ebe	-0.46312517
68	0xbf0571ce	-0.5212678
69	0x3e338ca7	0.17534123
70	0x3f08c3fc	0.5342405
71	0xbed1f4d4	-0.41007102
72	0xbe110533	-0.1416214
73	0x3b82ce79	0.0039918986
74	0xbe7f8bbb	-0.24955647
75	0xbf042950	-0.5162554
76	0x3e7993df	0.24372815
77	0xbe5b1964	-0.21396405
78	0x3e00581e	0.12533614
79	0x3f19e41d	0.601137
80	0x3e918860	0.28424358
81	0x3d97067a	0.07374282
82	0x3ded6188	0.11590868
83	0xbe32eb73	-0.17472629
84	0x3ec8f6c6	0.39250773
85	0x3e9a7bdf	0.3017263
86	0x3d10aaaa	0.035319008
87	0x3d475b9b	0.048671346
88	0x3ce864f8	0.028368458
89	0x3ddbc253	0.10730424
90	0x3eb4887d	0.35260382
91	0xbf153f75	-0.5829995
92	0xbef05b5f	-0.4694471
93	0xbccb2853	-0.024799502
94	0x3ec59abe	0.3859462
95	0x3e4ec6c8	0.20193017
96	0xbed8ce0c	-0.423447
97	0x3e537b80	0.2065258
98	0xbe12163f	-0.14266299
99	0xbeadf2eb	-0.33974394
100	0x3ef8ba76	0.48579758
101	0x3e35ca2c	0.17752904
102	0x3e376c74	0.17912465
103	0x3e039876	0.12851128
104	0x3e9e0a4c	0.3086723
105	0xbe5f2984	-0.2179318
106	0x3ecaed9e	0.39634413
107	0xbd8d3fe8	-0.06896955
108	0xbe01f99d	-0.12692876
109	0x3d38a10b	0.045075458
110	0xbe1ae537	-0.15126501
111	0x3f07eeba	0.5309864
112	0xbeed07db	-0.46295056
113	0x3e2cf755	0.16891225
114	0xbe520e5f	-0.20513295
115	0x3d6fb2b7	0.058520045
116	0x3e88ca38	0.2671678
117	0xbeb87ad8	-0.36031222
118	0xbe034379	-0.12818708
119	0xbda726f3	-0.08161726
120	0xbea3c296	-0.31984395
121	0x3dcef38e	0.10105048
122	0x3eb3c652	0.35112244
123	0x3eeddfd8	0.46459842
124	0x3ee5d334	0.44887698
125	0x3e94743e	0.28994936
126	0x3e7f2257	0.24915443
127	0x3e1ca0c6	0.15295705
128	0x3e5c091c	0.2148785
129	0x3d670323	0.056399476
130	0xbea8098d	-0.32819787
131	0xbdb25577	-0.087077074
132	0xbdae68e8	-0.08516103
133	0x3ee4629b	0.4460648
134	0x3ed215ce	0.4103226
135	0xbecc8ee2	-0.3995276
136	0xbea5d2cd	-0.3238739
137	0x3e9334c6	0.287512
138	0x3eddf95b	0.43354306
139	0xbf0a67fc	-0.5406492
140	0xbeada1a6	-0.3391239
141	0x3eb8b50b	0.36075625
142	0x3e688362	0.22706369
143	0x3f03b157	0.51442474
144	0x3e805d91	0.25071386
145	0xbedc110e	-0.42981762
146	0x3ed77fd3	0.4208971
147	0x3f027ed3	0.5097477
148	0xbce36687	-0.02775885
149	0x3db1bc41	0.08678485
150	0x3f12e3d9	0.5737892
151	0x3ecf3141	0.40467265
152	0x3e88aee7	0.2669594
153	0xbdff27b8	-0.124587476
154	0x3e82ef81	0.25573352
155	0x3e2e7b59	0.17039241
156	0x3ecd6c54	0.4012171
157	0xbea3dd29	-0.3200467
158	0xbde2bf3d	-0.11071632
159	0xbee2ed87	-0.44321844
160	0xbed41bf7	-0.41427585
161	0x3ea48b4f	0.32137534
162	0x3e18561b	0.14876597
163	0x3ec7b82f	0.39007708
164	0x3eb286e6	0.34868544
165	0x3dabe776	0.08393757
166	0xbd138795	-0.036017973
167	0x3d9fa1ca	0.07794531
168	0xbec15d49	-0.37766483
169	0xbeb91d5c	-0.36155212
170	0xbeca9cfc	-0.39572895
171	0xbe8f1597	-0.2794616
172	0x3e9fdf42	0.3122502
173	0x3ee166a6	0.44023627
174	0x3e8366b7	0.25664303
175	0x3cadb5d2	0.021204863
176	0x3df8f428	0.12155944
177	0xbe805e31	-0.25071862
178	0xbe9f77a8	-0.31145978
179	0xbe769a79	-0.24082364
180	0xbdd78c4d	-0.10524807
181	0x3ef2c74c	0.47417676
182	0x3e906620	0.28202915
183	0x3d4a9ca3	0.049465787
184	0x3ea766c4	0.3269559
185	0x3e1522c6	0.14564046
186	0xbeb96830	-0.362123
187	0x3ec3b959	0.38227347
188	0x3e85f0fb	0.26160416
189	0x3eaad3b1	0.33364633
190	0x3ea1cc95	0.31601396
191	0x3de42c20	0.11141229
192	0xbea55f1e	-0.3229913
193	0x3e48c4ff	0.19606398
194	0xbdffd00e	-0.12490855
195	0xbe3822e3	-0.17982058
196	0x3ee2436f	0.44192073
197	0xbe4d1ead	-0.20031233
198	0x3e3f10a4	0.18658692
199	0x3f024f66	0.509024
200	0x3e7d940d	0.24763508
201	0x3d5a58bc	0.05330728
202	0x3efbe37d	0.49196997
203	0x3efc9140	0.49329567
204	0x3e079e47	0.13243972
205	0xbef8050d	-0.48441353
206	0x3ebe75a0	0.37199116
207	0x3da6a189	0.08136279
208	0xbe00a538	-0.12563026
209	0x3d66adf0	0.056318223
210	0x3dbedc70	0.09319389
211	0x3d7221b0	0.05911416
212	0x3e24623e	0.16053101
213	0xbeea0bf6	-0.4571225
214	0x3e49c968	0.19705737
215	0x3cbb699f	0.022877512
216	0xbc6246a9	-0.013810792
217	0x3df78676	0.12086193
218	0x3eb5d008	0.35510278
219	0x3ec1e3d6	0.37869138
220	0xbe9f1a1b	-0.31074604
221	0xbe9c9c6f	-0.305881
222	0x3eac5e2f	0.33665606
223	0xbee85162	-0.4537459
224	0x3d427423	0.047474038
225	0xbd567799	-0.05236015
226	0xbe8bbc19	-0.27291945
227	0xbd5947cb	-0.053046983
228	0xbe2747ff	-0.16336058
229	0xbdd2d6a2	-0.10294844
230	0x3ec9aa61	0.393878
231	0x3f00ecbf	0.50361246
232	0xbe9ba932	-0.30402523
233	0xbbdff935	-0.0068351277
234	0xbe3b9df6	-0.18321976
235	0xbea4d275	-0.32191816
236	0xbf08cd15	-0.5343793
237	0xbe4c503c	-0.19952482
238	0x3e2ea1c0	0.1705389
239	0x3f16d7f7	0.58923286
240	0x3ef31ba5	0.4748203
241	0xbf05c384	-0.5225146
242	0xbdd669bd	-0.10469387
243	0x3e4e9623	0.2017446
244	0x3e5b6a4b	0.21427266
245	0xbe354f81	-0.1770611
246	0xbcaf23bb	-0.021379342
247	0xbe111576	-0.14168343
248	0xbeb3ba6c	-0.35103166
249	0x3e32f065	0.17474516
250	0xbe85152b	-0.25992712
251	0xbe7fff14	-0.24999648
252	0x3e16165c	0.14656967
253	0xbe215136	-0.15753636
254	0x3eab104e	0.33410877
255	0x3c367e3b	0.011138494

stack.0.bias f4 [64]
0	0x3e9b40ba	0.3032282
1	0xbef0abfc	-0.47006214
2	0xbedc6c35	-0.43051305
3	0xbe3be00e	-0.18347189
4	0xbefb24a2	-0.49051386
5	0x3e6421bd	0.22278495
6	0x3e32d39e	0.17463538
7	0xbd791b76	-0.060817204
8	0x3ee12cc9	0.4397948
9	0x3df8ae54	0.121426255
10	0xbee8d981	-0.45478442
11	0xbda4c363	-0.080450796
12	0x3de05948	0.10954529
13	0xbec825d6	-0.39091367
14	0x3e035b9d	0.12827916
15	0x3e37fd05	0.17967613
16	0xbef8afe5	-0.48571697
17	0x3e970347	0.29494688
18	0x3e73792d	0.23776694
19	0x3efac206	0.48976153
20	0xbda3c3c5	-0.079963244
21	0x3efe767c	0.4969977
22	0x3ed1e094	0.40991652
23	0x3edf8646	0.4365713
24	0x3edbf537	0.42960522
25	0xbef41d45	-0.4767858
26	0xbefbd95e	-0.49189276
27	0xbec04a1a	-0.37556535
28	0xbe50ba37	-0.20383535
29	0x3ec42a76	0.38313645
30	0xbde9e0d0	-0.11419833
31	0xbe56c822	-0.20974782
32	0x3eae5c4b	0.3405479
33	0x3d287dc1	0.041135553
34	0xbeadadb9	-0.33921602
35	0x3df125bc	0.117747754
36	0x3ec6a121	0.38794807
37	0x3db563ca	0.08856924
38	0xbeb6897d	-0.3565177
39	0x3dc25ef6	0.094907686
40	0xbeb2ac7c	-0.3489722
41	0xbef8dc9e	-0.48605818
42	0x3e81547f	0.25259778
43	0x3ee316e9	0.44353417
44	0xbe62c000	-0.22143555
45	0xbeec5dd2	-0.4616533
46	0x3ddfdeba	0.109311536
47	0xbe9605ba	-0.29301244
48	0x3dcf0f09	0.101102896
49	0x3bbe3e9b	0.005805803
50	0x3daa8b3f	0.0832734
51	0xbe74af5b	-0.23895018
52	0xbeee5e0a	-0.4655612
53	0x3ebff803	0.37493905
54	0xbeaf46fa	-0.34233838
55	0xbeb3ea8e	-0.3513989
56	0xbe02c478	-0.1277026
57	0x3e9a005d	0.30078402
58	0x3e5a9e17	0.21349369
59	0x3e8f2dea	0.27964717
60	0xbe0c47ae	-0.13699219
61	0xbdb4ac99	-0.08821983
62	0x3e3f108c	0.18658656
63	0x3ec0a32d	0.37624493

stack.2.weight f4 [2, 64]
0	0xbd5e8bb1	-0.05433244
1	0xbc0f07b6	-0.008729866
2	0xbe07fe71	-0.13280655
3	0xbd9ddffb	-0.077087365
4	0xbba19622	-0.0049312273
5	0x3e3c3317	0.18378864
6	0xbe2ea109	-0.17053618
7	0x3e244359	0.16041316
8	0xbaa308b9	-0.0012438513
9	0xbd3f4f17	-0.046706285
10	0xbcf73229	-0.030175285
11	0xbd14e30c	-0.03634934
12	0x3bd8ebf2	0.0066199237
13	0x3d2ee701	0.04270077
14	0xbcc4d30e	-0.02402642
15	0xbd98f319	-0.07468242
16	0x3dfe0adb	0.12404414
17	0xbd6cedca	-0.05784396
18	0x3e2f7992	0.17136219
19	0xbe156806	-0.14590463
20	0x3e1ff044	0.15618998
21	0x3d27e928	0.04099384
22	0x3e4377c0	0.1908865
23	0x3c81336b	0.015771588
24	0x3d1d4332	0.03839416
25	0x3d11855f	0.035527583
26	0x3dc5501a	0.09634419
27	0xbe39a984	-0.18131071
28	0x3d465e81	0.04842997
29	0xbcb005d1	-0.021487148
30	0x3c043f28	0.008071698
31	0xbd18d6c1	-0.03731418
32	0x3e0b318e	0.13593122
33	0x3dc5e017	0.09661882
34	0x3d8f95e2	0.0701101
35	0xbe41e320	-0.18934298
36	0xbe272a21	-0.16324665
37	0xbe2593b5	-0.16169627
38	0x3c573f18	0.013137601
39	0x3d4c5d75	0.049893815
40	0xbd9aaa95	-0.07552067
41	0xbdde0c59	-0.10842199
42	0x3d253877	0.040337052
43	0x3d0cc9a6	0.034371994
44	0x3dd7321d	0.10507605
45	0x3d40eea2	0.047102578
46	0xb9eb742f	-0.00044909256
47	0xbdc8c1eb	-0.09802612
48	0x3d124e10	0.035718977
49	0xbce61bd2	-0.028089438
50	0xbe33609a	-0.1751732
51	0xbbff7d94	-0.0077969525
52	0x3d83fad6	0.064443275
53	0x3cdd2f63	0.027000135
54	0xbdba4580	-0.09095287
55	0x3e077e27	0.13231717
56	0xbdb47f5a	-0.08813353
57	0xbe542d84	-0.20720488
58	0xbd03ad68	-0.032147795
59	0xbdad16ca	-0.08451612
60	0xbe27bf2f	-0.16381525
61	0xbccac2da	-0.024751116
62	0x3d9b1615	0.07572571
63	0x3d0a7b9a	0.033809282
64	0xbe09e6cd	-0.1346695
65	0xbcce5a9b	-0.025189688
66	0x3d5ee44a	0.054416932
67	0xbd65c69a	-0.056097604
68	0xbdb29ae9	-0.08720953
69	0xbe41c0b8	-0.18921173
70	0x3dc0e578	0.09418768
71	0xbe191dd4	-0.14952785
72	0xbd1589f2	-0.036508508
73	0x3e17353e	0.14766404
74	0x3cd5c30b	0.02609398
75	0x3cb4f1de	0.022087988
76	0x3d152f15	0.036421854
77	0xbdbf642f	-0.093452804
78	0x3e0ab905	0.13547142
79	0x3da6ab9a	0.08138199
80	0x3db07344	0.08615735
81	0x3c798a4e	0.015230728
82	0xbdacf00b	-0.08444222
83	0x3d8a0106	0.067384765
84	0xbd0dfece	-0.03466683
85	0xbddb0fec	-0.10696396
86	0xbde12c0f	-0.10994732
87	0x3def994e	0.116991624
88	0x3d191002	0.037368782
89	0x3db7516d	0.089510776
90	0x3caaf250	0.020867497
91	0x3de0e86b	0.1098183
92	0x3de07029	0.10958893
93	0x3cbd373e	0.02309763
94	0x3e224b8a	0.15849128
95	0x3da5d7b2	0.08097781
96	0x3d0d5ceb	0.03451244
97	0xbde07415	-0.10959641
98	0xbdfd0768	-0.12354928
99	0xbc820470	-0.015871257
100	0xbab9982c	-0.0014159731
101	0x3e62d668	0.22152102
102	0x3d9afe9a	0.07568093
103	0xbe117ccf	-0.14207767
104	0xbd94a90b	-0.07258805
105	0xbcc410c0	-0.023933768
106	0xbb6b1ca2	-0.003587522
107	0x3b992e1d	0.0046746866
108	0xbcaebbeb	-0.02132984
109	0xbc73cf7b	-0.01488101
110	0x3be9a48b	0.0071302108
111	0x3d058bc7	0.032604005
112	0x3c3ccc0b	0.011523257
113	0x3e3aaba6	0.18229541
114	0x3cf5b871	0.029995175
115	0x3e0de74d	0.13857765
116	0xbcc219b8	-0.023693904
117	0x3dfcfa65	0.123524465
118	0xbd0511ab	-0.032487553
119	0x3d76b525	0.060231347
120	0xbd9bb0d6	-0.07602088
121	0x3e3d64ed	0.18495531
122	0xbe058144	-0.13037592
123	0x3e32d5e4	0.17464405
124	0x3e1cb668	0.15303957
125	0x3d526e5d	0.051374782
126	0x3c7a1211	0.015263096
127	0xbd7fd004	-0.06245424

stack.2.bias f4 [2]
0	0x3bb2993a	0.005450395
1	0xbd054c1b	-0.032543283
