cartpole/model/policy_cartpole_modified.pt (torch, 4551 bytes, 4 tensors)

stack.0.weight f4 [64, 4]
-0.18914351 -0.2532986 0.6999447 0.35068578 0.2752222 -0.40232304 0.2406586 -0.061607867
0.066915624 0.1466788 0.5019032 0.37131897 -0.25165462 0.116506845 -0.028048702 0.59485805
-0.45206484 0.1920537 -0.10785169 0.6894026 -0.21155079 0.19265363 -0.078509204 -0.47318012
0.36794204 -0.38439396 -0.27071485 0.18828705 -0.08645759 -0.3967649 0.04486223 -0.39387345
-0.30502132 0.5403096 -0.5191022 -0.61349005 -0.38813177 -0.1998088 0.036709197 -0.3375232
0.24025287 -0.118272044 -0.0259386 -0.62426037 -0.07089229 0.16527249 -0.07786973 -0.66185397
0.021572348 0.03643326 -0.20314415 0.3821385 -0.10289185 0.42290193 -0.10236124 -0.06349371
0.4838967 -0.31197542 -0.14757289 -0.58630496 -0.15188715 -0.124385245 -0.11096347 -0.59559774
0.47729325 -0.4446243 -0.11233811 -0.2264567 0.17693785 0.0002996507 -0.6741528 -0.2955805
0.46153894 0.4445662 -0.34509268 0.118648015 0.044838488 -0.025913628 -0.4998602 -0.6802542
0.18733373 -0.18540514 -0.70325327 -0.38669202 -0.54612017 -0.090838894 -0.007427138 -0.31465346
-0.02494877 0.09393927 -0.7367823 -0.21913387 0.43880343 0.34293276 -0.5933746 -0.2551447
0.22357003 0.2297352 0.13442576 -0.44564846 -0.42921713 -0.367779 0.39430702 0.38276356
-0.0987497 0.038000364 0.5979031 0.32972568 -0.0094364425 -0.2796664 0.46650484 -0.0031524298
0.08126893 0.5743382 -0.4104073 -0.4073456 0.20059623 0.3026976 -0.036665175 -0.5151229
-0.24451104 0.38602874 0.6983379 0.7215157 -0.49277297 0.049419377 0.13257574 -0.10463983
0.23919731 0.53708035 0.072743975 -0.3001201 0.08706267 0.04606257 -0.3713444 0.2439473
-0.10772777 -0.45885888 -0.035614543 0.20242055 0.6470753 0.43275568 -0.6296089 -0.5022166
-0.32642105 0.33358198 0.122747876 0.5604289 0.251305 0.0097624175 -0.5336399 -0.55314374
-0.11045782 -0.05552488 0.24354441 -0.58402485 0.29190952 0.042369373 -0.08073029 0.40961015
-0.4863167 -0.0069966842 -0.3297188 0.07801989 0.4761649 0.3836377 -0.26036388 -0.08248097
0.6735541 0.37938124 -0.4849971 -0.6503055 0.18280113 -0.51716954 0.12886529 0.48239505
0.028198471 -0.13092174 -0.26086664 0.28214985 0.32818606 0.49385503 0.1582813 0.09284883
-0.44749722 -0.2232037 0.03303837 0.6073927 0.6136269 -0.00048886385 0.12476668 -0.6170903
0.34572208 0.37799224 0.519154 -0.35739395 -0.0064496025 -0.3808816 0.12731479 0.3254908
-0.11928891 0.05211973 0.46444157 0.3276993 0.01362702 -0.05489913 0.61088735 0.37004265
0.0072101136 -0.055541635 -0.17974599 0.45900244 -0.3199813 0.63511616 0.16088313 -0.5160542
-0.393184 0.20898287 0.5796874 0.51686496 -0.16632642 0.33437803 0.42256215 0.24981746
0.34800455 -0.031196477 0.23166136 0.4569926 -0.2931334 0.4464473 -0.015084465 0.3439081
0.3542962 -0.04031211 0.60071784 -0.056855477 0.3932363 0.17740679 0.6608164 0.41864756
0.01426579 -0.26361793 0.44928977 0.4178121 -0.12286532 -0.32748574 0.675663 0.100401685
0.006025724 -0.15230566 -0.24278507 0.20315678 -0.20505476 -0.29373303 0.5115361 0.17009412
00000000: d6ae 41be 5bb0 81be 932f 333f 168d b33e
00000010: ede9 8c3e 49fd cdbe 356f 763e 8858 7cbd
00000020: 0f0b 893d f832 163e ba7c 003f 851d be3e
00000030: e0d8 80be 249b ee3d 64c6 e5bc 9e48 183f
00000040: 0b75 e7be baa9 443e 59e1 dcbd b07c 303f
00000050: c5a0 58be fe46 453e 6fc9 a0bd aa44 f2be
00000060: e662 bc3e 49cf c4be 239b 8abe 52ce 403e
00000070: ad10 b1bd c524 cbbe 75c1 373d c8a9 c9be
00000080: c12b 9cbe bb51 0a3f e2e3 04bf af0d 1dbf
00000090: 35b9 c6be ae9a 4cbe 625c 163d d7cf acbe
000000a0: d904 763e 9d38 f2bd 307d d4bc 87cf 1fbf
000000b0: fa2f 91bd 313d 293e 2a7a 9fbd 436f 29bf
000000c0: 7eb8 b03c 0b3b 153d 0505 50be a8a7 c33e
000000d0: f6b8 d2bd 9a86 d83e c5a2 d1bd fd08 82bd
000000e0: 4fc1 f73e 3ebb 9fbe 591d 17be 1518 16bf
000000f0: 4e88 1bbe b1bd febd d140 e3bd 1879 18bf
00000100: c85f f43e cca5 e3be 8611 e6bd 44e4 67be
00000110: 322f 353e 701a 9d39 4795 2cbf 5456 97be
00000120: d54e ec3e 2e9e e33e fdaf b0be bbfd f23d
00000130: 90a8 373d d148 d4bc aded ffbe 2425 2ebf
00000140: 6ad4 3f3e d8da 3dbe 6808 34bf 7ffc c5be
00000150: 88ce 0bbf be09 babd 595f f3bb 421a a1be
00000160: 5d61 ccbc 3b63 c03d c49d 3cbf a164 60be
00000170: d8aa e03e e294 af3e 66e7 17bf 53a2 82be
00000180: 8bef 643e b43f 6b3e e8a6 093e 092c e4be
00000190: 59c2 dbbe 874d bcbe 9ce2 c93e 96f9 c33e
000001a0: 483d cabd 45a6 1b3d 2d10 193f ced1 a83e
000001b0: 4f9b 1abc 6f30 8fbe b9d9 ee3e ff98 4ebb
000001c0: 5370 a63d d407 133f e820 d2be 9a8f d0be
000001d0: 1969 4d3e 2efb 9a3e 392e 16bd 18df 03bf
000001e0: 1a61 7abe 8fa5 c53e 46c6 323f 41b5 383f
000001f0: bd4c fcbe f96b 4a3d efc1 073e 684d d6bd
00000200: 24f0 743e 197e 093f cbfa 943d 57a9 99be
00000210: ea4d b23d 1bac 3c3d da20 bebe 52cd 793e
00000220: 61a0 dcbd 8def eabe 8ee0 11bd 5547 4f3e
00000230: baa6 253f 2792 dd3e 0d2e 21bf 4491 00bf
00000240: a920 a7be 42cb aa3e 3d63 fb3d 4578 0f3f
00000250: 0dab 803e 8cf2 1f3c a09c 08bf d49a 0dbf
00000260: b637 e2bd 0e6e 63bd b563 793e a782 15bf
00000270: 2a75 953e 828b 2d3d ec55 a5bd 6cb8 d13e
00000280: 81fe f8be 7144 e5bb e7d0 a8be e4c8 9f3d
00000290: e3cb f33e 296c c43e 6a4e 85be c8eb a8bd
000002a0: 0b6e 2c3f 423e c23e 8a51 f8be 6c7a 26bf
000002b0: 3830 3b3e 3965 04bf 43f5 033e 7cfc f63e
000002c0: 7b00 e73c 5910 06be 5090 85be f275 903e
000002d0: 0108 a83e 91da fc3e 7e14 223e 8727 be3d
000002e0: 5b1e e5be 838f 64be 3e53 073d 177e 1b3f
000002f0: a716 1d3f 1927 00ba ac85 ff3d a1f9 1dbf
00000300: 7c02 b13e 3388 c13e 47e7 043f 57fc b6be
00000310: 3057 d3bb ea02 c3be cf5e 023e bba6 a63e
00000320: be4d f4bd 7f7b 553d 49cb ed3e 34c8 a73e
00000330: dd43 5f3c e9dd 60bd 1d63 1c3f 3b76 bd3e
00000340: d142 ec3b a07f 63bd 550f 38be 5e02 eb3e
00000350: 97d4 a3be f996 223f 8cbe 243e 211c 04bf
00000360: 6a4f c9be 9bff 553e 6566 143f 4351 043f
00000370: 7951 2abe 9933 ab3e 115a d83e 26d0 7f3e
00000380: a72d b23e c18f ffbc a338 6d3e effa e93e
00000390: 9515 96be be94 e43e d524 77bc b914 b03e
000003a0: 5066 b53e 501e 25bd a5c8 193f 4ae1 68bd
000003b0: 4556 c93e 20aa 353e 432b 293f f958 d63e
000003c0: 0fbb 693c eef8 86be 4f09 e63e 78eb d53e
000003d0: d0a0 fbbd 36ac a7be 40f8 2c3f 669f cd3d
000003e0: 7073 c53b 04f6 1bbe a69c 78be 5508 503e
000003f0: e0f9 51be 2d64 96be 08f4 023f 272d 2e3e

stack.0.bias f4 [64]
0.39635104 -0.307636 0.18314148 0.120989695 0.21645276 0.24360915 0.21794605 -0.26342723
0.15124635 -0.41748244 0.33120835 0.23378079 0.1684737 -0.004502349 0.1990123 0.25098288
-0.2459661 0.34647253 -0.3548088 0.32553786 0.3703274 -0.335038 0.12666604 0.16664167
-0.032385826 0.24557881 0.34311208 -0.2546503 -0.15502639 -0.105557896 0.29263923 -0.24576491
-0.21734855 0.40968457 -0.2190118 0.04859552 0.18340212 0.28854942 0.27257377 0.22164744
-0.14993119 -0.17392287 -0.05834288 0.501757 0.20171182 -0.062198445 0.4811359 0.10503726
-0.20423481 0.13538088 -0.36672467 0.47445598 -0.40912503 -0.34643465 -0.10635112 0.28223667
0.13410014 -0.17027369 0.32374328 0.39071277 -0.1456723 0.03222264 -0.33662277 0.034500036
00000000: 86ee ca3e 7782 9dbe 7189 3b3e 72c9 f73d
00000010: cba5 5d3e ad74 793e 402d 5f3e efdf 86be
00000020: 53e0 1a3e 42c0 d5be 2494 a93e 3b64 6f3e
00000030: 5f84 2c3e 7188 93bb e1c9 4b3e d480 803e
00000040: 8ade 7bbe d964 b13e 80a9 b5be e6ac a63e
00000050: 8e9b bd3e 1a8a abbe beb4 013e 1da4 2a3e
00000060: 00a7 04bd 0379 7b3e 63ac af3e 8661 82be
00000070: 3dbf 1ebe bd2e d8bd cfd4 953e cca9 7bbe
00000080: 9e90 5ebe 2dc2 d13e a144 60be 190c 473d
00000090: c4cd 3b3e c0bc 933e ca8e 8b3e 8cf7 623e
000000a0: 9087 19be d618 32be f2f8 6ebd 2673 003f
000000b0: 8b8d 4e3e ccc3 7ebd 7257 f63e c61d d73d
000000c0: ee22 51be 49a1 0a3e 56c3 bbbe e5eb f23e
000000d0: d678 d1be e25f b1be 9ece d9bd 5381 903e
000000e0: 8c51 093e 3a5c 2ebe aec1 a53e 810b c83e
000000f0: 1f2b 15be e3fb 033d d259 acbe e94f 0d3d

stack.2.weight f4 [2, 64]
-0.050197884 0.04554726 -0.2256573 -0.2518388 -0.06408485 0.02462513 0.0053328793 -0.06371384
0.25402176 -0.13032809 0.120125666 0.043718867 -0.1710146 0.080628395 0.27057782 0.14180648
0.12805428 0.08125088 0.23362939 0.21755785 0.14310583 -0.15728284 0.33423865 0.13759734
0.24843436 0.013963963 0.006398281 -0.058865596 0.26332265 0.25223395 -0.29372293 -0.19175673
0.07525861 -0.010035769 -0.008855821 0.16199754 -0.08395556 0.09456216 0.16448314 -0.18761201
-0.08830533 0.073381886 0.18333912 -0.110977426 -0.046493176 -0.01848209 -0.19870214 0.17896232
0.14474624 -0.0022262745 0.114905775 -0.030241499 -0.088346034 0.14455552 -0.15579914 -0.08006254
-0.14571823 0.0269103 0.0024441925 -0.14988722 -0.03796462 -0.09352834 -0.04580066 0.011700246
0.107728496 0.021249935 0.02683807 0.16327581 0.28121197 -0.11827215 0.055092167 0.030063717
-0.0243846 0.050208684 -0.19729957 -0.2659874 0.116898924 -0.068464294 -0.24825636 -0.046666086
0.008202085 -0.092910446 0.007204675 -0.30063984 -0.17341433 0.1482397 -0.27830857 -0.2752079
-0.10097759 0.037880585 0.11371035 -0.04463684 -0.06076502 -0.04348455 0.24513306 0.010565177
-0.15571925 -0.013972435 0.112906896 -0.3333044 0.26989794 -0.27766454 -0.09945154 0.1556208
0.16522175 -0.051656734 -0.22304568 0.15347515 -0.021767654 -0.16749485 0.14792036 -0.34134558
-0.21236114 0.05356923 -0.11438254 0.09398912 0.09520754 -0.23231405 -0.020225827 0.008895796
0.10045487 -0.053105596 0.04333062 -0.021767085 0.19072647 0.17073806 -0.04097013 0.18047269
00000000: 4c9c 4dbd c48f 3a3d b512 67be 04f1 80be
00000010: eb3e 83bd a4ba c93c 6fbf ae3b 677c 82bd
00000020: 240f 823e ba74 05be 7204 f63d 8e12 333d
00000030: 741e 2fbe 8020 a53d 2d89 8a3e b835 113e
00000040: a920 033e dd66 a63d 8b3c 6f3e 7cc7 5e3e
00000050: 568a 123e c10e 21be 5421 ab3e 51e6 0c3e
00000060: 9465 7e3e 1bc9 643c aca8 d13b 0d1d 71bd
00000070: 3ad2 863e cf24 813e da62 96be e05b 44be
00000080: 3021 9a3d 116d 24bc 0118 11bc afe2 253e
00000090: e5f0 abbd cea9 c13d 456e 283e 5d1d 40be
000000a0: 6dd9 b4bd 3e49 963d 40bd 3b3e 2248 e3bd
000000b0: a16f 3ebd c167 97bc 9378 4bbe e641 373e
000000c0: 5c38 143e b0e6 11bb b853 eb3d 05bd f7bc
000000d0: c4ee b4bd 5d06 143e cf89 1fbe d4f7 a3bd
000000e0: 2937 15be fd72 dc3c bf2e 203b 097c 19be
000000f0: ca80 1bbd c98b bfbd 7999 3bbd 63b2 3f3c
00000100: c2a0 dc3d 5814 ae3c 83db db3c c631 273e
00000110: 04fb 8f3e ab38 f2bd 53a8 613d 2f48 f63c
00000120: 36c2 c7bc 9fa7 4d3d e608 4abe 802f 88be
00000130: b468 ef3d 0237 8cbd ea36 7ebe f024 3fbd
00000140: 0a62 063c d547 bebd 3215 ec3b 77ed 99be
00000150: 8793 31be 26cc 173e 767e 8ebe 0de8 8cbe
00000160: 57cd cebd ac28 1b3d f9e0 e83d 1ed5 36bd
00000170: bee4 78bd db1c 32bd 2904 7b3e 9019 2d3c
00000180: de74 1fbe a4ec 64bc bb3b e73d e0a6 aabe
00000190: 1030 8a3e 0c2a 8ebe 40ad cbbd 0f5b 1f3e
000001a0: e42f 293e 0396 53bd 1666 64be 9728 1d3e
000001b0: 1452 b2bc c583 2bbe 6f78 173e d9c4 aebe
000001c0: 3375 59be 696b 5b3d 6541 eabd 5e7d c03d
000001d0: 2cfc c23d bce3 6dbe a2b0 a5bc acbf 113c
000001e0: 48bb cd3d 4185 59bd 737b 313d e350 b2bc
000001f0: cd4d 433e f5d5 2e3e 4cd0 27bd d5cd 383e

stack.2.bias f4 [2]
0.05478967 -0.031639732
00000000: 226b 603d aa98 01bd
